
Couldn't import dot_parser, loading of dot files will not be possible.
Dimension mismatch for ProstateDx-01-0055 in folder train
(96, 96)
____________________________________________________________________________________________________
Layer (type)                     Output Shape          Param #     Connected to                     
====================================================================================================
input_1 (InputLayer)             (None, 96, 96, 1)     0                                            
____________________________________________________________________________________________________
conv2d_1 (Conv2D)                (None, 96, 96, 8)     80          input_1[0][0]                    
____________________________________________________________________________________________________
conv2d_2 (Conv2D)                (None, 96, 96, 8)     584         conv2d_1[0][0]                   
____________________________________________________________________________________________________
max_pooling2d_1 (MaxPooling2D)   (None, 48, 48, 8)     0           conv2d_2[0][0]                   
____________________________________________________________________________________________________
conv2d_3 (Conv2D)                (None, 48, 48, 16)    1168        max_pooling2d_1[0][0]            
____________________________________________________________________________________________________
conv2d_4 (Conv2D)                (None, 48, 48, 16)    2320        conv2d_3[0][0]                   
____________________________________________________________________________________________________
max_pooling2d_2 (MaxPooling2D)   (None, 24, 24, 16)    0           conv2d_4[0][0]                   
____________________________________________________________________________________________________
conv2d_5 (Conv2D)                (None, 24, 24, 32)    4640        max_pooling2d_2[0][0]            
____________________________________________________________________________________________________
conv2d_6 (Conv2D)                (None, 24, 24, 32)    9248        conv2d_5[0][0]                   
____________________________________________________________________________________________________
up_sampling2d_1 (UpSampling2D)   (None, 48, 48, 32)    0           conv2d_6[0][0]                   
____________________________________________________________________________________________________
conv2d_7 (Conv2D)                (None, 48, 48, 16)    2064        up_sampling2d_1[0][0]            
____________________________________________________________________________________________________
concatenate_1 (Concatenate)      (None, 48, 48, 32)    0           conv2d_7[0][0]                   
                                                                   conv2d_4[0][0]                   
____________________________________________________________________________________________________
conv2d_8 (Conv2D)                (None, 48, 48, 16)    4624        concatenate_1[0][0]              
____________________________________________________________________________________________________
conv2d_9 (Conv2D)                (None, 48, 48, 16)    2320        conv2d_8[0][0]                   
____________________________________________________________________________________________________
up_sampling2d_2 (UpSampling2D)   (None, 96, 96, 16)    0           conv2d_9[0][0]                   
____________________________________________________________________________________________________
conv2d_10 (Conv2D)               (None, 96, 96, 8)     520         up_sampling2d_2[0][0]            
____________________________________________________________________________________________________
concatenate_2 (Concatenate)      (None, 96, 96, 16)    0           conv2d_10[0][0]                  
                                                                   conv2d_2[0][0]                   
____________________________________________________________________________________________________
conv2d_11 (Conv2D)               (None, 96, 96, 8)     1160        concatenate_2[0][0]              
____________________________________________________________________________________________________
conv2d_12 (Conv2D)               (None, 96, 96, 8)     584         conv2d_11[0][0]                  
____________________________________________________________________________________________________
conv2d_13 (Conv2D)               (None, 96, 96, 1)     9           conv2d_12[0][0]                  
====================================================================================================
Total params: 29,321
Trainable params: 29,321
Non-trainable params: 0
____________________________________________________________________________________________________
Epoch 1/30
306s - loss: -5.2009e-01 - dice_coef: 0.5201 - binary_accuracy: 0.9681 - val_loss: -6.2086e-01 - val_dice_coef: 0.6209 - val_binary_accuracy: 0.9854
…
